Found 9000 images belonging to 10 classes.
Found 999 images belonging to 10 classes.
Found 2000 images belonging to 10 classes.
Model: "sequential"
_________________________________________________________________
Layer (type)                 Output Shape              Param #   
=================================================================
conv2d (Conv2D)              (None, 126, 126, 32)      896       
_________________________________________________________________
re_lu (ReLU)                 (None, 126, 126, 32)      0         
_________________________________________________________________
batch_normalization (BatchNo (None, 126, 126, 32)      128       
_________________________________________________________________
max_pooling2d (MaxPooling2D) (None, 63, 63, 32)        0         
_________________________________________________________________
dropout (Dropout)            (None, 63, 63, 32)        0         
_________________________________________________________________
conv2d_1 (Conv2D)            (None, 61, 61, 64)        18496     
_________________________________________________________________
re_lu_1 (ReLU)               (None, 61, 61, 64)        0         
_________________________________________________________________
batch_normalization_1 (Batch (None, 61, 61, 64)        256       
_________________________________________________________________
max_pooling2d_1 (MaxPooling2 (None, 30, 30, 64)        0         
_________________________________________________________________
dropout_1 (Dropout)          (None, 30, 30, 64)        0         
_________________________________________________________________
conv2d_2 (Conv2D)            (None, 28, 28, 128)       73856     
_________________________________________________________________
re_lu_2 (ReLU)               (None, 28, 28, 128)       0         
_________________________________________________________________
batch_normalization_2 (Batch (None, 28, 28, 128)       512       
_________________________________________________________________
max_pooling2d_2 (MaxPooling2 (None, 14, 14, 128)       0         
_________________________________________________________________
dropout_2 (Dropout)          (None, 14, 14, 128)       0         
_________________________________________________________________
conv2d_3 (Conv2D)            (None, 12, 12, 256)       295168    
_________________________________________________________________
re_lu_3 (ReLU)               (None, 12, 12, 256)       0         
_________________________________________________________________
batch_normalization_3 (Batch (None, 12, 12, 256)       1024      
_________________________________________________________________
max_pooling2d_3 (MaxPooling2 (None, 6, 6, 256)         0         
_________________________________________________________________
dropout_3 (Dropout)          (None, 6, 6, 256)         0         
_________________________________________________________________
conv2d_4 (Conv2D)            (None, 4, 4, 512)         1180160   
_________________________________________________________________
re_lu_4 (ReLU)               (None, 4, 4, 512)         0         
_________________________________________________________________
batch_normalization_4 (Batch (None, 4, 4, 512)         2048      
_________________________________________________________________
max_pooling2d_4 (MaxPooling2 (None, 2, 2, 512)         0         
_________________________________________________________________
flatten (Flatten)            (None, 2048)              0         
_________________________________________________________________
dense (Dense)                (None, 32)                65568     
_________________________________________________________________
batch_normalization_5 (Batch (None, 32)                128       
_________________________________________________________________
dropout_4 (Dropout)          (None, 32)                0         
_________________________________________________________________
dense_1 (Dense)              (None, 10)                330       
=================================================================
Total params: 1,638,570
Trainable params: 1,636,522
Non-trainable params: 2,048
_________________________________________________________________
Epoch 1/10
  1/141 [..............................] - ETA: 0s - loss: 3.1011 - accuracy: 0.0938
…
