Found 9000 images belonging to 10 classes.
Found 999 images belonging to 10 classes.
Found 2000 images belonging to 10 classes.
Model: "sequential"
_________________________________________________________________
Layer (type)                 Output Shape              Param #   
=================================================================
conv2d (Conv2D)              (None, 126, 126, 64)      1792      
_________________________________________________________________
leaky_re_lu (LeakyReLU)      (None, 126, 126, 64)      0         
_________________________________________________________________
max_pooling2d (MaxPooling2D) (None, 63, 63, 64)        0         
_________________________________________________________________
dropout (Dropout)            (None, 63, 63, 64)        0         
_________________________________________________________________
conv2d_1 (Conv2D)            (None, 61, 61, 128)       73856     
_________________________________________________________________
leaky_re_lu_1 (LeakyReLU)    (None, 61, 61, 128)       0         
_________________________________________________________________
max_pooling2d_1 (MaxPooling2 (None, 30, 30, 128)       0         
_________________________________________________________________
dropout_1 (Dropout)          (None, 30, 30, 128)       0         
_________________________________________________________________
conv2d_2 (Conv2D)            (None, 28, 28, 256)       295168    
_________________________________________________________________
leaky_re_lu_2 (LeakyReLU)    (None, 28, 28, 256)       0         
_________________________________________________________________
max_pooling2d_2 (MaxPooling2 (None, 14, 14, 256)       0         
_________________________________________________________________
dropout_2 (Dropout)          (None, 14, 14, 256)       0         
_________________________________________________________________
conv2d_3 (Conv2D)            (None, 12, 12, 512)       1180160   
_________________________________________________________________
leaky_re_lu_3 (LeakyReLU)    (None, 12, 12, 512)       0         
_________________________________________________________________
max_pooling2d_3 (MaxPooling2 (None, 6, 6, 512)         0         
_________________________________________________________________
dropout_3 (Dropout)          (None, 6, 6, 512)         0         
_________________________________________________________________
conv2d_4 (Conv2D)            (None, 4, 4, 1024)        4719616   
_________________________________________________________________
leaky_re_lu_4 (LeakyReLU)    (None, 4, 4, 1024)        0         
_________________________________________________________________
max_pooling2d_4 (MaxPooling2 (None, 2, 2, 1024)        0         
_________________________________________________________________
flatten (Flatten)            (None, 4096)              0         
_________________________________________________________________
dense (Dense)                (None, 32)                131104    
_________________________________________________________________
dropout_4 (Dropout)          (None, 32)                0         
_________________________________________________________________
dense_1 (Dense)              (None, 10)                330       
=================================================================
Total params: 6,402,026
Trainable params: 6,402,026
Non-trainable params: 0
_________________________________________________________________
Epoch 1/10

  1/563 [..............................] - ETA: 0s - loss: 2.3492 - accuracy: 0.1250
  3/563 [..............................] - ETA: 46s - loss: 2.5796 - accuracy: 0.1042
  4/563 [..............................] - ETA: 1:05 - loss: 2.5092 - accuracy: 0.0938
…
